…
snapshot_prefix: "zf_fast_rcnn"
average_loss: 100
I1222 19:09:46.696077  3202 solver.cpp:86] Creating training net from train_net file: models/ZF/fast_rcnn/train.prototxt
I1222 19:09:46.697614  3202 net.cpp:50] Initializing net from parameters: 
name: "ZF"
state {
  phase: TRAIN
}
layer {
  name: "data"
  type: "Python"
  top: "data"
  top: "rois"
  top: "labels"
  top: "bbox_targets"
  top: "bbox_inside_weights"
  top: "bbox_outside_weights"
  python_param {
    module: "roi_data_layer.layer"
    layer: "RoIDataLayer"
    param_str: "\'num_classes\': 21"
  }
}
layer {
  name: "conv1"
  type: "Convolution"
  bottom: "data"
  top: "conv1"
  param {
    lr_mult: 1
  }
  param {
    lr_mult: 2
  }
  convolution_param {
    num_output: 96
    pad: 3
    kernel_size: 7
    stride: 2
  }
}
layer {
  name: "relu1"
  type: "ReLU"
  bottom: "conv1"
  top: "conv1"
}
layer {
  name: "norm1"
  type: "LRN"
  bottom: "conv1"
  top: "norm1"
  lrn_param {
    local_size: 3
    alpha: 5e-05
    beta: 0.75
    norm_region: WITHIN_CHANNEL
  }
}
layer {
  name: "pool1"
  type: "Pooling"
  bottom: "norm1"
  top: "pool1"
  pooling_param {
    pool: MAX
    kernel_size: 3
    stride: 2
    pad: 1
  }
}
layer {
  name: "conv2"
  type: "Convolution"
  bottom: "pool1"
  top: "conv2"
  param {
    lr_mult: 1
  }
  param {
    lr_mult: 2
  }
  convolution_param {
    num_output: 256
    pad: 2
    kernel_size: 5
    stride: 2
  }
}
layer {
  name: "relu2"
  type: "ReLU"
  bottom: "conv2"
  top: "conv2"
}
layer {
  name: "norm2"
  type: "LRN"
  bottom: "conv2"
  top: "norm2"
  lrn_param {
    local_size: 3
    alpha: 5e-05
    beta: 0.75
    norm_region: WITHIN_CHANNEL
  }
}
layer {
  name: "pool2"
  type: "Pooling"
  bottom: "norm2"
  top: "pool2"
  pooling_param {
    pool: MAX
    kernel_size: 3
    stride: 2
    pad: 1
  }
}
layer {
  name: "conv3"
  type: "Convolution"
  bottom: "pool2"
  top: "conv3"
  param {
    lr_mult: 1
  }
  param {
    lr_mult: 2
  }
  convolution_param {
    num_output: 384
    pad: 1
    kernel_size: 3
    stride: 1
  }
}
layer {
  name: "relu3"
  type: "ReLU"
  bottom: "conv3"
  top: "conv3"
}
layer {
  name: "conv4"
  type: "Convolution"
  bottom: "conv3"
  top: "conv4"
  param {
    lr_mult: 1
  }
  param {
    lr_mult: 2
  }
  convolution_param {
    num_output: 384
    pad: 1
    kernel_size: 3
    stride: 1
  }
}
layer {
  name: "relu4"
  type: "ReLU"
  bottom: "conv4"
  top: "conv4"
}
layer {
  name: "conv5"
  type: "Convolution"
  bottom: "conv4"
  top: "conv5"
  param {
    lr_mult: 1
  }
  param {
    lr_mult: 2
  }
  convolution_param {
    num_output: 256
    pad: 1
    kernel_size: 3
    stride: 1
  }
}
layer {
  name: "relu5"
  type: "ReLU"
  bottom: "conv5"
  top: "conv5"
}
layer {
  name: "roi_pool_conv5"
  type: "ROIPooling"
  bottom: "conv5"
  bottom: "rois"
  top: "roi_pool_conv5"
  roi_pooling_param {
    pooled_h: 6
    pooled_w: 6
    spatial_scale: 0.0625
  }
}
layer {
  name: "fc6"
  type: "InnerProduct"
  bottom: "roi_pool_conv5"
  top: "fc6"
  param {
    lr_mult: 1
  }
  param {
    lr_mult: 2
  }
  inner_product_param {
    num_output: 4096
  }
}
layer {
  name: "relu6"
  type: "ReLU"
  bottom: "fc6"
  top: "fc6"
}
layer {
  name: "drop6"
  type: "Dropout"
  bottom: "fc6"
  top: "fc6"
  dropout_param {
    dropout_ratio: 0.5
    scale_train: false
  }
}
layer {
  name: "fc7"
  type: "InnerProduct"
  bottom: "fc6"
  top: "fc7"
  param {
    lr_mult: 1
  }
  param {
    lr_mult: 2
  }
  inner_product_param {
    num_output: 4096
  }
}
layer {
  name: "relu7"
  type: "ReLU"
  bottom: "fc7"
  top: "fc7"
}
layer {
  name: "drop7"
  type: "Dropout"
  bottom: "fc7"
  top: "fc7"
  dropout_param {
    dropout_ratio: 0.5
    scale_train: false
  }
}
layer {
  name: "cls_score"
  type: "InnerProduct"
  bottom: "fc7"
  top: "cls_score"
  param {
    lr_mult: 1
  }
  param {
    lr_mult: 2
  }
  inner_product_param {
    num_output: 21
    weight_filler {
      type: "gaussian"
      std: 0.01
    }
    bias_filler {
      type: "constant"
      value: 0
    }
  }
}
layer {
  name: "bbox_pred"
  type: "InnerProduct"
  bottom: "fc7"
  top: "bbox_pred"
  param {
    lr_mult: 1
  }
  param {
    lr_mult: 2
  }
  inner_product_param {
    num_output: 84
    weight_filler {
      type: "gaussian"
      std: 0.001
    }
    bias_filler {
      type: "constant"
      value: 0
    }
  }
}
layer {
  name: "loss_cls"
  type: "SoftmaxWithLoss"
  bottom: "cls_score"
  bottom: "labels"
  top: "cls_loss"
  loss_weight: 1
  propagate_down: true
  propagate_down: false
  loss_param {
    ignore_label: -1
    normalize: true
  }
}
layer {
  name: "loss_bbox"
  type: "SmoothL1Loss"
  bottom: "bbox_pred"
  bottom: "bbox_targets"
  bottom: "bbox_inside_weights"
  bottom: "bbox_outside_weights"
  top: "bbox_loss"
  loss_weight: 1
}
I1222 19:09:46.698160  3202 layer_factory.hpp:76] Creating layer data
I1222 19:09:47.704397  3202 net.cpp:110] Creating Layer data
I1222 19:09:47.704465  3202 net.cpp:433] data -> data
I1222 19:09:47.704993  3202 net.cpp:433] data -> rois
I1222 19:09:47.705035  3202 net.cpp:433] data -> labels
I1222 19:09:47.705056  3202 net.cpp:433] data -> bbox_targets
I1222 19:09:47.705071  3202 net.cpp:433] data -> bbox_inside_weights
I1222 19:09:47.705086  3202 net.cpp:433] data -> bbox_outside_weights
RoiDataLayer: name_to_top: {'bbox_inside_weights': 4, 'labels': 2, 'rois': 1, 'bbox_targets': 3, 'bbox_outside_weights': 5, 'data': 0}
I1222 19:09:47.706221  3202 net.cpp:155] Setting up data
I1222 19:09:47.706256  3202 net.cpp:163] Top shape: 2 3 600 1000 (3600000)
I1222 19:09:47.706272  3202 net.cpp:163] Top shape: 1 5 (5)
I1222 19:09:47.706289  3202 net.cpp:163] Top shape: 1 (1)
I1222 19:09:47.706298  3202 net.cpp:163] Top shape: 1 84 (84)
I1222 19:09:47.706310  3202 net.cpp:163] Top shape: 1 84 (84)
I1222 19:09:47.706320  3202 net.cpp:163] Top shape: 1 84 (84)
I1222 19:09:47.706331  3202 layer_factory.hpp:76] Creating layer conv1
I1222 19:09:47.706616  3202 net.cpp:110] Creating Layer conv1
I1222 19:09:47.706639  3202 net.cpp:477] conv1 <- data
I1222 19:09:47.706658  3202 net.cpp:433] conv1 -> conv1
I1222 19:09:47.837498  3202 net.cpp:155] Setting up conv1
I1222 19:09:47.837533  3202 net.cpp:163] Top shape: 2 96 300 500 (28800000)
I1222 19:09:47.837558  3202 layer_factory.hpp:76] Creating layer relu1
I1222 19:09:47.837579  3202 net.cpp:110] Creating Layer relu1
I1222 19:09:47.837591  3202 net.cpp:477] relu1 <- conv1
I1222 19:09:47.837602  3202 net.cpp:419] relu1 -> conv1 (in-place)
I1222 19:09:47.837982  3202 net.cpp:155] Setting up relu1
I1222 19:09:47.838011  3202 net.cpp:163] Top shape: 2 96 300 500 (28800000)
I1222 19:09:47.838019  3202 layer_factory.hpp:76] Creating layer norm1
I1222 19:09:47.838042  3202 net.cpp:110] Creating Layer norm1
I1222 19:09:47.838050  3202 net.cpp:477] norm1 <- conv1
I1222 19:09:47.838069  3202 net.cpp:433] norm1 -> norm1
I1222 19:09:47.839068  3202 net.cpp:155] Setting up norm1
I1222 19:09:47.839095  3202 net.cpp:163] Top shape: 2 96 300 500 (28800000)
I1222 19:09:47.839103  3202 layer_factory.hpp:76] Creating layer pool1
I1222 19:09:47.839121  3202 net.cpp:110] Creating Layer pool1
I1222 19:09:47.839130  3202 net.cpp:477] pool1 <- norm1
I1222 19:09:47.839143  3202 net.cpp:433] pool1 -> pool1
I1222 19:09:47.839161  3202 net.cpp:155] Setting up pool1
I1222 19:09:47.839172  3202 net.cpp:163] Top shape: 2 96 151 251 (7276992)
I1222 19:09:47.839179  3202 layer_factory.hpp:76] Creating layer conv2
I1222 19:09:47.839191  3202 net.cpp:110] Creating Layer conv2
I1222 19:09:47.839198  3202 net.cpp:477] conv2 <- pool1
I1222 19:09:47.839210  3202 net.cpp:433] conv2 -> conv2
I1222 19:09:47.841193  3202 net.cpp:155] Setting up conv2
I1222 19:09:47.841215  3202 net.cpp:163] Top shape: 2 256 76 126 (4902912)
I1222 19:09:47.841233  3202 layer_factory.hpp:76] Creating layer relu2
I1222 19:09:47.841244  3202 net.cpp:110] Creating Layer relu2
I1222 19:09:47.841251  3202 net.cpp:477] relu2 <- conv2
I1222 19:09:47.841264  3202 net.cpp:419] relu2 -> conv2 (in-place)
I1222 19:09:47.841277  3202 net.cpp:155] Setting up relu2
I1222 19:09:47.841285  3202 net.cpp:163] Top shape: 2 256 76 126 (4902912)
I1222 19:09:47.841292  3202 layer_factory.hpp:76] Creating layer norm2
I1222 19:09:47.841306  3202 net.cpp:110] Creating Layer norm2
I1222 19:09:47.841313  3202 net.cpp:477] norm2 <- conv2
I1222 19:09:47.841322  3202 net.cpp:433] norm2 -> norm2
I1222 19:09:47.841353  3202 net.cpp:155] Setting up norm2
I1222 19:09:47.841367  3202 net.cpp:163] Top shape: 2 256 76 126 (4902912)
I1222 19:09:47.841374  3202 layer_factory.hpp:76] Creating layer pool2
I1222 19:09:47.841387  3202 net.cpp:110] Creating Layer pool2
I1222 19:09:47.841393  3202 net.cpp:477] pool2 <- norm2
I1222 19:09:47.841403  3202 net.cpp:433] pool2 -> pool2
I1222 19:09:47.841415  3202 net.cpp:155] Setting up pool2
I1222 19:09:47.841424  3202 net.cpp:163] Top shape: 2 256 39 64 (1277952)
I1222 19:09:47.841430  3202 layer_factory.hpp:76] Creating layer conv3
I1222 19:09:47.841441  3202 net.cpp:110] Creating Layer conv3
I1222 19:09:47.841449  3202 net.cpp:477] conv3 <- pool2
I1222 19:09:47.841460  3202 net.cpp:433] conv3 -> conv3
I1222 19:09:47.845759  3202 net.cpp:155] Setting up conv3
I1222 19:09:47.845783  3202 net.cpp:163] Top shape: 2 384 39 64 (1916928)
I1222 19:09:47.845801  3202 layer_factory.hpp:76] Creating layer relu3
I1222 19:09:47.845814  3202 net.cpp:110] Creating Layer relu3
I1222 19:09:47.845823  3202 net.cpp:477] relu3 <- conv3
I1222 19:09:47.845832  3202 net.cpp:419] relu3 -> conv3 (in-place)
I1222 19:09:47.845844  3202 net.cpp:155] Setting up relu3
I1222 19:09:47.845854  3202 net.cpp:163] Top shape: 2 384 39 64 (1916928)
I1222 19:09:47.845860  3202 layer_factory.hpp:76] Creating layer conv4
I1222 19:09:47.845870  3202 net.cpp:110] Creating Layer conv4
I1222 19:09:47.845877  3202 net.cpp:477] conv4 <- conv3
I1222 19:09:47.845890  3202 net.cpp:433] conv4 -> conv4
I1222 19:09:47.850754  3202 net.cpp:155] Setting up conv4
I1222 19:09:47.850778  3202 net.cpp:163] Top shape: 2 384 39 64 (1916928)
I1222 19:09:47.850791  3202 layer_factory.hpp:76] Creating layer relu4
I1222 19:09:47.850803  3202 net.cpp:110] Creating Layer relu4
I1222 19:09:47.850811  3202 net.cpp:477] relu4 <- conv4
I1222 19:09:47.850824  3202 net.cpp:419] relu4 -> conv4 (in-place)
I1222 19:09:47.850837  3202 net.cpp:155] Setting up relu4
I1222 19:09:47.850847  3202 net.cpp:163] Top shape: 2 384 39 64 (1916928)
I1222 19:09:47.850852  3202 layer_factory.hpp:76] Creating layer conv5
I1222 19:09:47.850863  3202 net.cpp:110] Creating Layer conv5
I1222 19:09:47.850870  3202 net.cpp:477] conv5 <- conv4
I1222 19:09:47.850879  3202 net.cpp:433] conv5 -> conv5
I1222 19:09:47.854218  3202 net.cpp:155] Setting up conv5
I1222 19:09:47.854240  3202 net.cpp:163] Top shape: 2 256 39 64 (1277952)
I1222 19:09:47.854259  3202 layer_factory.hpp:76] Creating layer relu5
I1222 19:09:47.854279  3202 net.cpp:110] Creating Layer relu5
I1222 19:09:47.854285  3202 net.cpp:477] relu5 <- conv5
I1222 19:09:47.854295  3202 net.cpp:419] relu5 -> conv5 (in-place)
I1222 19:09:47.854306  3202 net.cpp:155] Setting up relu5
I1222 19:09:47.854315  3202 net.cpp:163] Top shape: 2 256 39 64 (1277952)
I1222 19:09:47.854321  3202 layer_factory.hpp:76] Creating layer roi_pool_conv5
I1222 19:09:47.854342  3202 net.cpp:110] Creating Layer roi_pool_conv5
I1222 19:09:47.854349  3202 net.cpp:477] roi_pool_conv5 <- conv5
I1222 19:09:47.854358  3202 net.cpp:477] roi_pool_conv5 <- rois
I1222 19:09:47.854372  3202 net.cpp:433] roi_pool_conv5 -> roi_pool_conv5
I1222 19:09:47.854385  3202 roi_pooling_layer.cpp:30] Spatial scale: 0.0625
I1222 19:09:47.854418  3202 net.cpp:155] Setting up roi_pool_conv5
I1222 19:09:47.854426  3202 net.cpp:163] Top shape: 1 256 6 6 (9216)
I1222 19:09:47.854434  3202 layer_factory.hpp:76] Creating layer fc6
I1222 19:09:47.854456  3202 net.cpp:110] Creating Layer fc6
I1222 19:09:47.854470  3202 net.cpp:477] fc6 <- roi_pool_conv5
I1222 19:09:47.854481  3202 net.cpp:433] fc6 -> fc6
I1222 19:09:48.019855  3202 net.cpp:155] Setting up fc6
I1222 19:09:48.019927  3202 net.cpp:163] Top shape: 1 4096 (4096)
I1222 19:09:48.019950  3202 layer_factory.hpp:76] Creating layer relu6
I1222 19:09:48.019973  3202 net.cpp:110] Creating Layer relu6
I1222 19:09:48.019984  3202 net.cpp:477] relu6 <- fc6
I1222 19:09:48.019999  3202 net.cpp:419] relu6 -> fc6 (in-place)
I1222 19:09:48.020022  3202 net.cpp:155] Setting up relu6
I1222 19:09:48.020030  3202 net.cpp:163] Top shape: 1 4096 (4096)
I1222 19:09:48.020037  3202 layer_factory.hpp:76] Creating layer drop6
I1222 19:09:48.020051  3202 net.cpp:110] Creating Layer drop6
I1222 19:09:48.020057  3202 net.cpp:477] drop6 <- fc6
I1222 19:09:48.020066  3202 net.cpp:419] drop6 -> fc6 (in-place)
I1222 19:09:48.020081  3202 net.cpp:155] Setting up drop6
I1222 19:09:48.020099  3202 net.cpp:163] Top shape: 1 4096 (4096)
I1222 19:09:48.020107  3202 layer_factory.hpp:76] Creating layer fc7
I1222 19:09:48.020118  3202 net.cpp:110] Creating Layer fc7
I1222 19:09:48.020125  3202 net.cpp:477] fc7 <- fc6
I1222 19:09:48.020141  3202 net.cpp:433] fc7 -> fc7
I1222 19:09:48.083436  3202 net.cpp:155] Setting up fc7
I1222 19:09:48.083503  3202 net.cpp:163] Top shape: 1 4096 (4096)
I1222 19:09:48.083524  3202 layer_factory.hpp:76] Creating layer relu7
I1222 19:09:48.083544  3202 net.cpp:110] Creating Layer relu7
I1222 19:09:48.083556  3202 net.cpp:477] relu7 <- fc7
I1222 19:09:48.083571  3202 net.cpp:419] relu7 -> fc7 (in-place)
I1222 19:09:48.083591  3202 net.cpp:155] Setting up relu7
I1222 19:09:48.083600  3202 net.cpp:163] Top shape: 1 4096 (4096)
I1222 19:09:48.083606  3202 layer_factory.hpp:76] Creating layer drop7
I1222 19:09:48.083623  3202 net.cpp:110] Creating Layer drop7
I1222 19:09:48.083631  3202 net.cpp:477] drop7 <- fc7
I1222 19:09:48.083641  3202 net.cpp:419] drop7 -> fc7 (in-place)
I1222 19:09:48.083654  3202 net.cpp:155] Setting up drop7
I1222 19:09:48.083662  3202 net.cpp:163] Top shape: 1 4096 (4096)
I1222 19:09:48.083669  3202 layer_factory.hpp:76] Creating layer fc7_drop7_0_split
I1222 19:09:48.083683  3202 net.cpp:110] Creating Layer fc7_drop7_0_split
I1222 19:09:48.083689  3202 net.cpp:477] fc7_drop7_0_split <- fc7
I1222 19:09:48.083698  3202 net.cpp:433] fc7_drop7_0_split -> fc7_drop7_0_split_0
I1222 19:09:48.083711  3202 net.cpp:433] fc7_drop7_0_split -> fc7_drop7_0_split_1
I1222 19:09:48.083736  3202 net.cpp:155] Setting up fc7_drop7_0_split
I1222 19:09:48.083750  3202 net.cpp:163] Top shape: 1 4096 (4096)
I1222 19:09:48.083757  3202 net.cpp:163] Top shape: 1 4096 (4096)
I1222 19:09:48.083765  3202 layer_factory.hpp:76] Creating layer cls_score
I1222 19:09:48.083782  3202 net.cpp:110] Creating Layer cls_score
I1222 19:09:48.083797  3202 net.cpp:477] cls_score <- fc7_drop7_0_split_0
I1222 19:09:48.083808  3202 net.cpp:433] cls_score -> cls_score
I1222 19:09:48.087575  3202 net.cpp:155] Setting up cls_score
I1222 19:09:48.087595  3202 net.cpp:163] Top shape: 1 21 (21)
I1222 19:09:48.087607  3202 layer_factory.hpp:76] Creating layer bbox_pred
I1222 19:09:48.087621  3202 net.cpp:110] Creating Layer bbox_pred
I1222 19:09:48.087630  3202 net.cpp:477] bbox_pred <- fc7_drop7_0_split_1
I1222 19:09:48.087644  3202 net.cpp:433] bbox_pred -> bbox_pred
I1222 19:09:48.103273  3202 net.cpp:155] Setting up bbox_pred
I1222 19:09:48.103296  3202 net.cpp:163] Top shape: 1 84 (84)
I1222 19:09:48.103322  3202 layer_factory.hpp:76] Creating layer loss_cls
I1222 19:09:48.103338  3202 net.cpp:110] Creating Layer loss_cls
I1222 19:09:48.103346  3202 net.cpp:477] loss_cls <- cls_score
I1222 19:09:48.103355  3202 net.cpp:477] loss_cls <- labels
I1222 19:09:48.103365  3202 net.cpp:433] loss_cls -> cls_loss
I1222 19:09:48.103382  3202 layer_factory.hpp:76] Creating layer loss_cls
…
           'RPN_POST_NMS_TOP_N': 2000,
           'RPN_PRE_NMS_TOP_N': 12000,
           'SCALES': [600],
           'SNAPSHOT_INFIX': '',
           'SNAPSHOT_ITERS': 10000,
           'USE_FLIPPED': True,
           'USE_PREFETCH': False},
 'USE_GPU_NMS': True}
WARNING: Logging before InitGoogleLogging() is written to STDERR
I1223 01:04:40.318882  4231 net.cpp:50] Initializing net from parameters: 
name: "ZF"
input: "data"
input: "rois"
state {
  phase: TEST
}
input_shape {
  dim: 1
  dim: 3
  dim: 224
  dim: 224
}
input_shape {
  dim: 1
  dim: 5
}
layer {
  name: "conv1"
  type: "Convolution"
  bottom: "data"
  top: "conv1"
  convolution_param {
    num_output: 96
    pad: 3
    kernel_size: 7
    stride: 2
  }
}
layer {
  name: "relu1"
  type: "ReLU"
  bottom: "conv1"
  top: "conv1"
}
layer {
  name: "norm1"
  type: "LRN"
  bottom: "conv1"
  top: "norm1"
  lrn_param {
    local_size: 3
    alpha: 5e-05
    beta: 0.75
    norm_region: WITHIN_CHANNEL
  }
}
layer {
  name: "pool1"
  type: "Pooling"
  bottom: "norm1"
  top: "pool1"
  pooling_param {
    pool: MAX
    kernel_size: 3
    stride: 2
    pad: 1
  }
}
layer {
  name: "conv2"
  type: "Convolution"
  bottom: "pool1"
  top: "conv2"
  convolution_param {
    num_output: 256
    pad: 2
    kernel_size: 5
    stride: 2
  }
}
layer {
  name: "relu2"
  type: "ReLU"
  bottom: "conv2"
  top: "conv2"
}
layer {
  name: "norm2"
  type: "LRN"
  bottom: "conv2"
  top: "norm2"
  lrn_param {
    local_size: 3
    alpha: 5e-05
    beta: 0.75
    norm_region: WITHIN_CHANNEL
  }
}
layer {
  name: "pool2"
  type: "Pooling"
  bottom: "norm2"
  top: "pool2"
  pooling_param {
    pool: MAX
    kernel_size: 3
    stride: 2
    pad: 1
  }
}
layer {
  name: "conv3"
  type: "Convolution"
  bottom: "pool2"
  top: "conv3"
  convolution_param {
    num_output: 384
    pad: 1
    kernel_size: 3
    stride: 1
  }
}
layer {
  name: "relu3"
  type: "ReLU"
  bottom: "conv3"
  top: "conv3"
}
layer {
  name: "conv4"
  type: "Convolution"
  bottom: "conv3"
  top: "conv4"
  convolution_param {
    num_output: 384
    pad: 1
    kernel_size: 3
    stride: 1
  }
}
layer {
  name: "relu4"
  type: "ReLU"
  bottom: "conv4"
  top: "conv4"
}
layer {
  name: "conv5"
  type: "Convolution"
  bottom: "conv4"
  top: "conv5"
  convolution_param {
    num_output: 256
    pad: 1
    kernel_size: 3
    stride: 1
  }
}
layer {
  name: "relu5"
  type: "ReLU"
  bottom: "conv5"
  top: "conv5"
}
layer {
  name: "roi_pool_conv5"
  type: "ROIPooling"
  bottom: "conv5"
  bottom: "rois"
  top: "roi_pool_conv5"
  roi_pooling_param {
    pooled_h: 6
    pooled_w: 6
    spatial_scale: 0.0625
  }
}
layer {
  name: "fc6"
  type: "InnerProduct"
  bottom: "roi_pool_conv5"
  top: "fc6"
  inner_product_param {
    num_output: 4096
  }
}
layer {
  name: "relu6"
  type: "ReLU"
  bottom: "fc6"
  top: "fc6"
}
layer {
  name: "drop6"
  type: "Dropout"
  bottom: "fc6"
  top: "fc6"
  dropout_param {
    dropout_ratio: 0.5
    scale_train: false
  }
}
layer {
  name: "fc7"
  type: "InnerProduct"
  bottom: "fc6"
  top: "fc7"
  inner_product_param {
    num_output: 4096
  }
}
layer {
  name: "relu7"
  type: "ReLU"
  bottom: "fc7"
  top: "fc7"
}
layer {
  name: "drop7"
  type: "Dropout"
  bottom: "fc7"
  top: "fc7"
  dropout_param {
    dropout_ratio: 0.5
    scale_train: false
  }
}
layer {
  name: "cls_score"
  type: "InnerProduct"
  bottom: "fc7"
  top: "cls_score"
  inner_product_param {
    num_output: 21
  }
}
layer {
  name: "bbox_pred"
  type: "InnerProduct"
  bottom: "fc7"
  top: "bbox_pred"
  inner_product_param {
    num_output: 84
  }
}
layer {
  name: "cls_prob"
  type: "Softmax"
  bottom: "cls_score"
  top: "cls_prob"
  loss_param {
    ignore_label: -1
    normalize: true
  }
}
I1223 01:04:40.319169  4231 net.cpp:435] Input 0 -> data
I1223 01:04:40.319248  4231 net.cpp:435] Input 1 -> rois
I1223 01:04:40.319285  4231 layer_factory.hpp:76] Creating layer conv1
I1223 01:04:40.319315  4231 net.cpp:110] Creating Layer conv1
I1223 01:04:40.319330  4231 net.cpp:477] conv1 <- data
I1223 01:04:40.319355  4231 net.cpp:433] conv1 -> conv1
I1223 01:04:40.388020  4231 net.cpp:155] Setting up conv1
I1223 01:04:40.388063  4231 net.cpp:163] Top shape: 1 96 112 112 (1204224)
I1223 01:04:40.388097  4231 layer_factory.hpp:76] Creating layer relu1
I1223 01:04:40.388121  4231 net.cpp:110] Creating Layer relu1
I1223 01:04:40.388139  4231 net.cpp:477] relu1 <- conv1
I1223 01:04:40.388154  4231 net.cpp:419] relu1 -> conv1 (in-place)
I1223 01:04:40.388183  4231 net.cpp:155] Setting up relu1
I1223 01:04:40.388198  4231 net.cpp:163] Top shape: 1 96 112 112 (1204224)
I1223 01:04:40.388208  4231 layer_factory.hpp:76] Creating layer norm1
I1223 01:04:40.388236  4231 net.cpp:110] Creating Layer norm1
I1223 01:04:40.388247  4231 net.cpp:477] norm1 <- conv1
I1223 01:04:40.388260  4231 net.cpp:433] norm1 -> norm1
I1223 01:04:40.394692  4231 net.cpp:155] Setting up norm1
I1223 01:04:40.394721  4231 net.cpp:163] Top shape: 1 96 112 112 (1204224)
I1223 01:04:40.394732  4231 layer_factory.hpp:76] Creating layer pool1
I1223 01:04:40.394747  4231 net.cpp:110] Creating Layer pool1
I1223 01:04:40.394763  4231 net.cpp:477] pool1 <- norm1
I1223 01:04:40.394778  4231 net.cpp:433] pool1 -> pool1
I1223 01:04:40.394800  4231 net.cpp:155] Setting up pool1
I1223 01:04:40.394814  4231 net.cpp:163] Top shape: 1 96 57 57 (311904)
I1223 01:04:40.394824  4231 layer_factory.hpp:76] Creating layer conv2
I1223 01:04:40.394840  4231 net.cpp:110] Creating Layer conv2
I1223 01:04:40.394850  4231 net.cpp:477] conv2 <- pool1
I1223 01:04:40.394866  4231 net.cpp:433] conv2 -> conv2
I1223 01:04:40.398514  4231 net.cpp:155] Setting up conv2
I1223 01:04:40.398545  4231 net.cpp:163] Top shape: 1 256 29 29 (215296)
I1223 01:04:40.398567  4231 layer_factory.hpp:76] Creating layer relu2
I1223 01:04:40.398586  4231 net.cpp:110] Creating Layer relu2
I1223 01:04:40.398597  4231 net.cpp:477] relu2 <- conv2
I1223 01:04:40.398610  4231 net.cpp:419] relu2 -> conv2 (in-place)
I1223 01:04:40.398627  4231 net.cpp:155] Setting up relu2
I1223 01:04:40.398638  4231 net.cpp:163] Top shape: 1 256 29 29 (215296)
I1223 01:04:40.398648  4231 layer_factory.hpp:76] Creating layer norm2
I1223 01:04:40.398660  4231 net.cpp:110] Creating Layer norm2
I1223 01:04:40.398669  4231 net.cpp:477] norm2 <- conv2
I1223 01:04:40.398684  4231 net.cpp:433] norm2 -> norm2
I1223 01:04:40.398723  4231 net.cpp:155] Setting up norm2
I1223 01:04:40.398743  4231 net.cpp:163] Top shape: 1 256 29 29 (215296)
I1223 01:04:40.398753  4231 layer_factory.hpp:76] Creating layer pool2
I1223 01:04:40.398766  4231 net.cpp:110] Creating Layer pool2
I1223 01:04:40.398775  4231 net.cpp:477] pool2 <- norm2
I1223 01:04:40.398787  4231 net.cpp:433] pool2 -> pool2
I1223 01:04:40.398804  4231 net.cpp:155] Setting up pool2
I1223 01:04:40.398816  4231 net.cpp:163] Top shape: 1 256 15 15 (57600)
I1223 01:04:40.398825  4231 layer_factory.hpp:76] Creating layer conv3
I1223 01:04:40.398844  4231 net.cpp:110] Creating Layer conv3
I1223 01:04:40.398862  4231 net.cpp:477] conv3 <- pool2
I1223 01:04:40.398880  4231 net.cpp:433] conv3 -> conv3
I1223 01:04:40.402293  4231 net.cpp:155] Setting up conv3
I1223 01:04:40.402324  4231 net.cpp:163] Top shape: 1 384 15 15 (86400)
I1223 01:04:40.402348  4231 layer_factory.hpp:76] Creating layer relu3
I1223 01:04:40.402362  4231 net.cpp:110] Creating Layer relu3
I1223 01:04:40.402371  4231 net.cpp:477] relu3 <- conv3
I1223 01:04:40.402385  4231 net.cpp:419] relu3 -> conv3 (in-place)
I1223 01:04:40.402400  4231 net.cpp:155] Setting up relu3
I1223 01:04:40.402413  4231 net.cpp:163] Top shape: 1 384 15 15 (86400)
I1223 01:04:40.402422  4231 layer_factory.hpp:76] Creating layer conv4
I1223 01:04:40.402434  4231 net.cpp:110] Creating Layer conv4
I1223 01:04:40.402443  4231 net.cpp:477] conv4 <- conv3
I1223 01:04:40.402456  4231 net.cpp:433] conv4 -> conv4
I1223 01:04:40.407415  4231 net.cpp:155] Setting up conv4
I1223 01:04:40.407446  4231 net.cpp:163] Top shape: 1 384 15 15 (86400)
I1223 01:04:40.407465  4231 layer_factory.hpp:76] Creating layer relu4
I1223 01:04:40.407480  4231 net.cpp:110] Creating Layer relu4
I1223 01:04:40.407490  4231 net.cpp:477] relu4 <- conv4
I1223 01:04:40.407502  4231 net.cpp:419] relu4 -> conv4 (in-place)
I1223 01:04:40.407517  4231 net.cpp:155] Setting up relu4
I1223 01:04:40.407529  4231 net.cpp:163] Top shape: 1 384 15 15 (86400)
I1223 01:04:40.407538  4231 layer_factory.hpp:76] Creating layer conv5
I1223 01:04:40.407552  4231 net.cpp:110] Creating Layer conv5
I1223 01:04:40.407560  4231 net.cpp:477] conv5 <- conv4
I1223 01:04:40.407577  4231 net.cpp:433] conv5 -> conv5
I1223 01:04:40.411609  4231 net.cpp:155] Setting up conv5
I1223 01:04:40.411643  4231 net.cpp:163] Top shape: 1 256 15 15 (57600)
I1223 01:04:40.411667  4231 layer_factory.hpp:76] Creating layer relu5
I1223 01:04:40.411687  4231 net.cpp:110] Creating Layer relu5
I1223 01:04:40.411697  4231 net.cpp:477] relu5 <- conv5
I1223 01:04:40.411710  4231 net.cpp:419] relu5 -> conv5 (in-place)
I1223 01:04:40.411725  4231 net.cpp:155] Setting up relu5
I1223 01:04:40.411737  4231 net.cpp:163] Top shape: 1 256 15 15 (57600)
I1223 01:04:40.411746  4231 layer_factory.hpp:76] Creating layer roi_pool_conv5
I1223 01:04:40.411759  4231 net.cpp:110] Creating Layer roi_pool_conv5
I1223 01:04:40.411767  4231 net.cpp:477] roi_pool_conv5 <- conv5
I1223 01:04:40.411778  4231 net.cpp:477] roi_pool_conv5 <- rois
I1223 01:04:40.411790  4231 net.cpp:433] roi_pool_conv5 -> roi_pool_conv5
I1223 01:04:40.411815  4231 roi_pooling_layer.cpp:30] Spatial scale: 0.0625
I1223 01:04:40.411850  4231 net.cpp:155] Setting up roi_pool_conv5
I1223 01:04:40.411864  4231 net.cpp:163] Top shape: 1 256 6 6 (9216)
I1223 01:04:40.411872  4231 layer_factory.hpp:76] Creating layer fc6
I1223 01:04:40.411893  4231 net.cpp:110] Creating Layer fc6
I1223 01:04:40.411908  4231 net.cpp:477] fc6 <- roi_pool_conv5
I1223 01:04:40.411921  4231 net.cpp:433] fc6 -> fc6
I1223 01:04:40.606740  4231 net.cpp:155] Setting up fc6
I1223 01:04:40.606806  4231 net.cpp:163] Top shape: 1 4096 (4096)
I1223 01:04:40.606827  4231 layer_factory.hpp:76] Creating layer relu6
I1223 01:04:40.606853  4231 net.cpp:110] Creating Layer relu6
I1223 01:04:40.606873  4231 net.cpp:477] relu6 <- fc6
I1223 01:04:40.606886  4231 net.cpp:419] relu6 -> fc6 (in-place)
I1223 01:04:40.606906  4231 net.cpp:155] Setting up relu6
I1223 01:04:40.606915  4231 net.cpp:163] Top shape: 1 4096 (4096)
I1223 01:04:40.606922  4231 layer_factory.hpp:76] Creating layer drop6
I1223 01:04:40.606935  4231 net.cpp:110] Creating Layer drop6
I1223 01:04:40.606941  4231 net.cpp:477] drop6 <- fc6
I1223 01:04:40.606953  4231 net.cpp:419] drop6 -> fc6 (in-place)
I1223 01:04:40.606967  4231 net.cpp:155] Setting up drop6
I1223 01:04:40.606989  4231 net.cpp:163] Top shape: 1 4096 (4096)
I1223 01:04:40.606997  4231 layer_factory.hpp:76] Creating layer fc7
I1223 01:04:40.607008  4231 net.cpp:110] Creating Layer fc7
I1223 01:04:40.607014  4231 net.cpp:477] fc7 <- fc6
I1223 01:04:40.607023  4231 net.cpp:433] fc7 -> fc7
I1223 01:04:40.669994  4231 net.cpp:155] Setting up fc7
I1223 01:04:40.670061  4231 net.cpp:163] Top shape: 1 4096 (4096)
I1223 01:04:40.670084  4231 layer_factory.hpp:76] Creating layer relu7
I1223 01:04:40.670101  4231 net.cpp:110] Creating Layer relu7
I1223 01:04:40.670112  4231 net.cpp:477] relu7 <- fc7
I1223 01:04:40.670126  4231 net.cpp:419] relu7 -> fc7 (in-place)
I1223 01:04:40.670146  4231 net.cpp:155] Setting up relu7
I1223 01:04:40.670156  4231 net.cpp:163] Top shape: 1 4096 (4096)
I1223 01:04:40.670163  4231 layer_factory.hpp:76] Creating layer drop7
I1223 01:04:40.670174  4231 net.cpp:110] Creating Layer drop7
I1223 01:04:40.670181  4231 net.cpp:477] drop7 <- fc7
I1223 01:04:40.670194  4231 net.cpp:419] drop7 -> fc7 (in-place)
I1223 01:04:40.670208  4231 net.cpp:155] Setting up drop7
I1223 01:04:40.670218  4231 net.cpp:163] Top shape: 1 4096 (4096)
I1223 01:04:40.670225  4231 layer_factory.hpp:76] Creating layer fc7_drop7_0_split
I1223 01:04:40.670234  4231 net.cpp:110] Creating Layer fc7_drop7_0_split
I1223 01:04:40.670241  4231 net.cpp:477] fc7_drop7_0_split <- fc7
I1223 01:04:40.670251  4231 net.cpp:433] fc7_drop7_0_split -> fc7_drop7_0_split_0
I1223 01:04:40.670264  4231 net.cpp:433] fc7_drop7_0_split -> fc7_drop7_0_split_1
I1223 01:04:40.670276  4231 net.cpp:155] Setting up fc7_drop7_0_split
I1223 01:04:40.670297  4231 net.cpp:163] Top shape: 1 4096 (4096)
I1223 01:04:40.670305  4231 net.cpp:163] Top shape: 1 4096 (4096)
I1223 01:04:40.670312  4231 layer_factory.hpp:76] Creating layer cls_score
I1223 01:04:40.670325  4231 net.cpp:110] Creating Layer cls_score
I1223 01:04:40.670331  4231 net.cpp:477] cls_score <- fc7_drop7_0_split_0
I1223 01:04:40.670342  4231 net.cpp:433] cls_score -> cls_score
I1223 01:04:40.671357  4231 net.cpp:155] Setting up cls_score
I1223 01:04:40.671380  4231 net.cpp:163] Top shape: 1 21 (21)
I1223 01:04:40.671393  4231 layer_factory.hpp:76] Creating layer bbox_pred
I1223 01:04:40.671404  4231 net.cpp:110] Creating Layer bbox_pred
I1223 01:04:40.671412  4231 net.cpp:477] bbox_pred <- fc7_drop7_0_split_1
I1223 01:04:40.671425  4231 net.cpp:433] bbox_pred -> bbox_pred
I1223 01:04:40.672696  4231 net.cpp:155] Setting up bbox_pred
I1223 01:04:40.672718  4231 net.cpp:163] Top shape: 1 84 (84)
I1223 01:04:40.672740  4231 layer_factory.hpp:76] Creating layer cls_prob
I1223 01:04:40.672755  4231 net.cpp:110] Creating Layer cls_prob
I1223 01:04:40.672762  4231 net.cpp:477] cls_prob <- cls_score
I1223 01:04:40.672775  4231 net.cpp:433] cls_prob -> cls_prob
I1223 01:04:40.672814  4231 net.cpp:155] Setting up cls_prob
I1223 01:04:40.672829  4231 net.cpp:163] Top shape: 1 21 (21)
I1223 01:04:40.672838  4231 net.cpp:240] cls_prob does not need backward computation.
I1223 01:04:40.672845  4231 net.cpp:240] bbox_pred does not need backward computation.
I1223 01:04:40.672852  4231 net.cpp:240] cls_score does not need backward computation.
I1223 01:04:40.672859  4231 net.cpp:240] fc7_drop7_0_split does not need backward computation.
I1223 01:04:40.672866  4231 net.cpp:240] drop7 does not need backward computation.
…
